…
############################################
Seed: 42
model: fc, embeddings: glove
Layer P1: -1, layer T1: -1
Dataset(s): ['en-universal'], input-length: 20, keep_pos_ratio: 0.2
Classification_p1: True, classification_t1: True, classification_r1: true
Training epochs: P1: 50, T1: 50, R1: 50
P1 MODEL
Model: "sequential"
________________________________________________________________________________
Layer (type)                        Output Shape                    Param #     
================================================================================
dense (Dense)                       (None, 512)                     3072512     
________________________________________________________________________________
dropout (Dropout)                   (None, 512)                     0           
________________________________________________________________________________
dense_1 (Dense)                     (None, 512)                     262656      
________________________________________________________________________________
dropout_1 (Dropout)                 (None, 512)                     0           
________________________________________________________________________________
dense_2 (Dense)                     (None, 6400)                    3283200     
________________________________________________________________________________
reshape (Reshape)                   (None, 400, 16)                 0           
================================================================================
Total params: 6,618,368
Trainable params: 6,618,368
Non-trainable params: 0
________________________________________________________________________________
T1 MODEL
Model: "sequential_1"
________________________________________________________________________________
Layer (type)                        Output Shape                    Param #     
================================================================================
dense_3 (Dense)                     (None, 512)                     3072512     
________________________________________________________________________________
dropout_2 (Dropout)                 (None, 512)                     0           
________________________________________________________________________________
dense_4 (Dense)                     (None, 512)                     262656      
________________________________________________________________________________
dropout_3 (Dropout)                 (None, 512)                     0           
________________________________________________________________________________
dense_5 (Dense)                     (None, 200)                     102600      
________________________________________________________________________________
reshape_1 (Reshape)                 (None, 20, 10)                  0           
================================================================================
Total params: 3,437,768
Trainable params: 3,437,768
Non-trainable params: 0
________________________________________________________________________________
R1 MODEL
Model: "sequential_2"
________________________________________________________________________________
Layer (type)                        Output Shape                    Param #     
================================================================================
dense_6 (Dense)                     (None, 512)                     3072512     
________________________________________________________________________________
dropout_4 (Dropout)                 (None, 512)                     0           
________________________________________________________________________________
dense_7 (Dense)                     (None, 512)                     262656      
________________________________________________________________________________
dropout_5 (Dropout)                 (None, 512)                     0           
________________________________________________________________________________
dense_8 (Dense)                     (None, 20)                      10260       
================================================================================
Total params: 3,345,428
Trainable params: 3,345,428
Non-trainable params: 0
________________________________________________________________________________
D1 MODEL
Model: "sequential_3"
________________________________________________________________________________
Layer (type)                        Output Shape                    Param #     
================================================================================
dense_9 (Dense)                     (None, 512)                     3072512     
________________________________________________________________________________
dropout_6 (Dropout)                 (None, 512)                     0           
________________________________________________________________________________
dense_10 (Dense)                    (None, 512)                     262656      
________________________________________________________________________________
dropout_7 (Dropout)                 (None, 512)                     0           
________________________________________________________________________________
dense_11 (Dense)                    (None, 20)                      10260       
================================================================================
Total params: 3,345,428
Trainable params: 3,345,428
Non-trainable params: 0
________________________________________________________________________________
Activation P1: linear, P1: linear, R1: linear, D1: linear

Perturbations method: WordNet-coPOS.
WordNet selection via: minority vote (least frequent).
Perturbations scenario: worst.
…
