…
###########################################
Seed: 42
model: fc, embeddings: bert
Layer P1: -9, layer T1: -9
Dataset(s): ['ud-english-ewt'], input-length: 20, keep_pos_ratio: 0.2
Classification_p1: True, classification_t1: True, classification_r1: true
Training epochs: P1: 50, T1: 50, R1: 50
P1 MODEL
Model: "sequential"
________________________________________________________________________________
Layer (type)                        Output Shape                    Param #     
================================================================================
dense (Dense)                       (None, 512)                     7864832     
________________________________________________________________________________
dropout (Dropout)                   (None, 512)                     0           
________________________________________________________________________________
dense_1 (Dense)                     (None, 512)                     262656      
________________________________________________________________________________
dropout_1 (Dropout)                 (None, 512)                     0           
________________________________________________________________________________
dense_2 (Dense)                     (None, 4400)                    2257200     
________________________________________________________________________________
reshape (Reshape)                   (None, 400, 11)                 0           
================================================================================
Total params: 10,384,688
Trainable params: 10,384,688
Non-trainable params: 0
________________________________________________________________________________
T1 MODEL
Model: "sequential_1"
________________________________________________________________________________
Layer (type)                        Output Shape                    Param #     
================================================================================
dense_3 (Dense)                     (None, 512)                     7864832     
________________________________________________________________________________
dropout_2 (Dropout)                 (None, 512)                     0           
________________________________________________________________________________
dense_4 (Dense)                     (None, 512)                     262656      
________________________________________________________________________________
dropout_3 (Dropout)                 (None, 512)                     0           
________________________________________________________________________________
dense_5 (Dense)                     (None, 220)                     112860      
________________________________________________________________________________
reshape_1 (Reshape)                 (None, 20, 11)                  0           
================================================================================
Total params: 8,240,348
Trainable params: 8,240,348
Non-trainable params: 0
________________________________________________________________________________
R1 MODEL
Model: "sequential_2"
________________________________________________________________________________
Layer (type)                        Output Shape                    Param #     
================================================================================
dense_6 (Dense)                     (None, 512)                     7864832     
________________________________________________________________________________
dropout_4 (Dropout)                 (None, 512)                     0           
________________________________________________________________________________
dense_7 (Dense)                     (None, 512)                     262656      
________________________________________________________________________________
dropout_5 (Dropout)                 (None, 512)                     0           
________________________________________________________________________________
dense_8 (Dense)                     (None, 20)                      10260       
================================================================================
Total params: 8,137,748
Trainable params: 8,137,748
Non-trainable params: 0
________________________________________________________________________________
D1 MODEL
Model: "sequential_3"
________________________________________________________________________________
Layer (type)                        Output Shape                    Param #     
================================================================================
dense_9 (Dense)                     (None, 512)                     7864832     
________________________________________________________________________________
dropout_6 (Dropout)                 (None, 512)                     0           
________________________________________________________________________________
dense_10 (Dense)                    (None, 512)                     262656      
________________________________________________________________________________
dropout_7 (Dropout)                 (None, 512)                     0           
________________________________________________________________________________
dense_11 (Dense)                    (None, 20)                      10260       
================================================================================
Total params: 8,137,748
Trainable params: 8,137,748
Non-trainable params: 0
________________________________________________________________________________
Activation P1: linear, P1: linear, R1: linear, D1: linear

Perturbations method: WordNet-coPOS.
WordNet selection via: minority vote (least frequent).
Perturbations scenario: worst.
…
